ch13/checkpoints/my_checkpoint.pth (torch, 2015 bytes, 3 tensors)

0.weight f4 [8, 10]
-0.13150963 0.07179457 -0.13012707 -0.15319695 0.25864473 0.2368016 -0.04951802 0.2030994
0.112121165 -0.20053384 -0.20252389 0.072708994 -0.054258376 -0.10489869 0.0011281371 0.10061872
-0.2913163 -0.14878622 0.22176823 0.08150005 0.30157468 -0.04262054 -0.10518274 -0.19420052
0.1926569 0.24708995 -0.027891695 0.27952996 -0.18115936 -0.25631037 -0.041296214 0.032488763
-0.1542262 -0.18325797 0.097222835 -0.26440546 0.25836274 -0.07880154 0.17709908 0.22941312
0.12469667 0.2694634 -0.31520912 -0.23046598 -0.01596883 0.002983451 -0.2843795 0.1556871
-0.21106982 0.19942692 -0.06202531 0.027175933 0.21789071 -0.19668797 0.03699854 0.27291724
0.13084042 0.22500703 0.10549536 0.21124008 0.22346649 0.26582596 -0.11072636 -0.051692963
0.091361046 0.28007135 0.120719045 0.27690235 -0.25994813 0.089797676 -0.006454557 0.08307952
-0.17198332 -0.11012392 0.22854999 0.0124717355 0.31430337 0.0450736 0.10370624 0.008836895
00000000: 76aa 06be 0809 933d 0840 05be a9df 1cbe
00000010: 156d 843e 1e7c 723e 68d3 4abd 4af9 4f3e
00000020: c89f e53d be58 4dbe 6c62 4fbe 74e8 943d
00000030: 083e 5ebd 20d5 d6bd 00de 933a 3011 ce3d
00000040: 6927 95be 6a5b 18be 3617 633e 80e9 a63d
00000050: ff67 9a3e e092 2ebd 0c6a d7bd 80dc 46be
00000060: da47 453e 2605 7d3e 207d e4bc 8d1e 8f3e
00000070: d781 39be 1d3b 83be 3826 29bd f012 053d
00000080: 79ed 1dbe faa7 3bbe c41c c73d 2760 87be
00000090: 1f48 843e b462 a1bd 7659 353e 46eb 6a3e
000000a0: f860 ff3d 1bf7 893e 1763 a1be 46ff 6bbe
000000b0: 10d1 82bc 0086 433b 319a 91be 706c 1f3e
000000c0: b022 58be 9236 4c3e 400e 7ebd 10a0 de3c
000000d0: be1e 5f3e 9268 49be c88b 173d cfbb 8b3e
000000e0: 08fb 053e 3e68 663e f40d d83d 524f 583e
000000f0: 66d4 643e 571a 883e 80c4 e2bd 00bc 53bd
00000100: 801b bb3d 8365 8f3e 8c3b f73d 25c6 8d3e
00000110: ec17 85be d8e7 b73d c080 d3bb 9825 aa3d
00000120: 651c 30be a688 e1bd 0209 6a3e 4056 4c3c
00000130: 5fec a03e 189f 383d f063 d43d a0c8 103c

0.bias f4 [8]
0.06529814 0.13595584 0.08626109 -0.29124355 0.06196153 -0.27545133 -0.11535996 -0.2098081
00000000: 08bb 853d 0238 0b3e a8a9 b03d e01d 95be
00000010: 60cb 7d3d f507 8dbe d841 ecbd efd7 56be

2.weight f4 [1, 8]
0.26683214 0.31736913 0.039190322 0.2424334 -0.08615157 -0.32496047 -0.1362399 -0.1708433
00000000: 399e 883e 357e a23e 0886 203d 7640 783e
00000010: 3c70 b0bd 3861 a6be 7982 0bbe 8cf1 2ebe
